Dataton/air_pollution_analysis/web-api/models/nn.pt (torch, 10595 bytes, 19 tensors)

weight f4 [14, 14]
0.11320073 0.04831686 0.2144329 0.26694164 0.3297761 0.1609697 -0.008846838 -0.058033906
0.24555987 0.2026863 0.17583825 0.08928623 0.24039008 -0.2756083 0.35130912 0.20626387
0.38034832 0.260792 0.17362574 0.22418323 0.110635474 0.060099576 -0.09787077 0.7518339
-0.3698682 -0.20254977 -0.054716717 -0.08326238 0.2534532 -0.057340283 0.25520507 0.574673
0.46673363 0.5275393 0.010757432 0.19452333 0.21503107 0.2613887 -0.137361 -0.12898353
0.10414153 -0.20944688 -0.20852548 -0.13060527 -0.18811427 -0.20822349 -0.27565953 -0.49347925
-0.0009624418 0.06734235 0.008484971 0.05000653 -0.33808514 0.065282054 -0.091103844 0.05597909
-0.21766868 -0.08499763 -0.11994504 -0.6375656 -0.4363584 -0.20015405 -0.3037562 -0.08429952
-0.17141968 -0.27439114 0.03850596 0.26386935 0.22891006 0.044124104 -0.08781195 0.053174026
-0.26087314 -0.44182366 -0.06914198 -0.2513465 -0.061986748 0.33867168 -0.5116578 -0.10870728
0.07716664 0.17918406 0.04641366 0.16255319 0.09448009 0.1841355 0.21240732 0.13172166
-0.21478489 -0.29654267 -0.36491343 0.10159378 0.04344599 -0.18919002 0.1606812 -0.049722984
-0.37387565 -0.008532677 0.014027436 0.021246903 0.027269857 0.14452465 0.2594301 0.20706727
0.3314154 0.0484037 -0.17126015 0.3292328 0.14933848 -0.3103488 -0.20650983 -0.17592317
0.02833733 -0.03830868 0.29710868 -0.07769396 0.39743167 0.098617494 0.232302 0.11272449
0.24742901 0.30741778 -0.22664656 -0.08735169 0.023462905 -0.27731565 0.017113836 0.11724479
0.32150087 0.34826 0.16096677 0.2326163 0.27911168 -0.05453178 0.3584005 0.19207302
0.20923655 -0.2434494 0.0378522 -0.037453555 0.16350958 0.0076045706 0.09607865 -0.1012812
0.12394543 -0.14781469 -0.32669884 -0.25042155 -0.4599836 0.12135481 -0.057076693 0.06980834
-0.1586987 0.3349065 0.31813398 0.16430762 0.08715634 0.40366375 0.57266414 0.39756033
0.15402757 -0.070356615 0.16873528 0.49079883 0.08349666 -0.012342379 0.08136671 -0.115561426
-0.123754986 -0.021423526 -0.0014383557 -0.16409956 -0.41018748 -0.4737567 -0.33595252 -0.0914864
-0.08165502 -0.14956903 0.1678974 0.060921013 0.13569483 0.052717827 0.13712364 0.028305683
0.13414009 -0.18736199 -0.4441801 -0.5428046 -0.563208 -0.10423459 -0.20205265 -0.2184968
0.47371393 0.18412745 0.08693915 -0.09073254
00000000: c9d5 e73d e6e7 453d 4c94 5b3e 93ac 883e
00000010: 6ad8 a83e 3ed5 243e 54f2 10bc f6b4 6dbd
00000020: 0c74 7b3e ff8c 4f3e f10e 343e b3db b63d
00000030: d128 763e 881c 8dbe cade b33e d636 533e
00000040: 04bd c23e 8786 853e f2ca 313e 4a90 653e
00000050: da94 e23d f92a 763d 7870 c8bd 3078 403f
00000060: 5d5f bdbe 3569 4fbe a31e 60bd 7785 aabd
00000070: 9ec4 813e a5dd 6abd 3daa 823e c51d 133f
00000080: b6f7 ee3e d10c 073f f13f 303c 2031 473e
00000090: 1b31 5c3e bdd4 853e 5da8 0cbe 4214 04be
000000a0: 2848 d53d 3e79 56be b487 55be 63bd 05be
000000b0: 07a1 40be 8a38 55be 3f23 8dbe 50a9 fcbe
000000c0: 604c 7cba c9ea 893d 8c04 0b3c a6d3 4c3d
000000d0: 7f19 adbe 99b2 853d a794 babd 554a 653d
000000e0: 8ae4 5ebe 3d13 aebd bfa5 f5bd 8037 23bf
000000f0: 5e6a dfbe 2ff5 4cbe ef85 9bbe 3aa5 acbd
00000100: a488 2fbe ff7c 8cbe 6db8 1d3d e219 873e
00000110: 6667 6a3e 7abb 343d c0d6 b3bd 02cd 593d
00000120: 2a91 85be b636 e2be 4f9a 8dbd 7db0 80be
00000130: d1e5 7dbd 6066 ad3e 01fc 02bf eca1 debd
00000140: 8b09 9e3d 077c 373e 401c 3e3d 5874 263e
00000150: c77e c13d 048e 3c3e 4e81 593e 0be2 063e
00000160: 92f0 5bbe 71d4 97be efd5 babe 6610 d03d
00000170: 6cf4 313d 07bb 41be 9d89 243e 54aa 4bbd
00000180: a16c bfbe a4cc 0bbc 55d3 653c fc0d ae3c
00000190: 0965 df3c 45fe 133e 06d4 843e 7109 543e
000001a0: 48af a93e f542 463d d25e 2fbe 3491 a83e
000001b0: 30ec 183e 0ae6 9ebe 5077 53be 3425 34be
000001c0: b023 e83c 90e9 1cbd a11e 983e 031e 9fbd
000001d0: 2a7c cb3e f8f7 c93d 93e0 6d3e 19dc e63d
000001e0: 085e 7d3e dd65 9d3e 0916 68be 71e5 b2bd
000001f0: 4735 c03c 51fc 8dbe 5132 8c3c 091e f03d
00000200: c39b a43e 224f b23e 79d4 243e f832 6e3e
00000210: bae7 8e3e b75c 5fbd 4580 b73e caae 443e
00000220: 1b42 563e cd4a 79be e90a 1b3d e668 19bd
00000230: 0e6f 273e c32f f93b e2c4 c43d 856c cfbd
00000240: 1ad7 fd3d bc5c 17be 1245 a7be 4137 80be
00000250: f882 ebbe df88 f83d 40c9 69bd adf7 8e3d
00000260: e981 22be dd78 ab3e 75e2 a23e 4240 283e
00000270: 067f b23d 04ad ce3e 1e9a 123f 078d cb3e
00000280: 67b9 1d3e 2117 90bd f1c8 2c3e fc49 fb3e
00000290: 4c00 ab3d b137 4abc 97a3 a63d 78ab ecbd
000002a0: 4173 fdbd 6480 afbc 3587 bcba b709 28be
000002b0: 1804 d2be 3d90 f2be f801 acbe 395d bbbd
000002c0: bf3a a7bd a028 19be 4ced 2b3e 5088 793d
000002d0: 96f3 0a3e a6ee 573d 246a 0c3e 52e1 e73c
000002e0: 055c 093e d2db 3fbe 936b e3be 3ef5 0abf
000002f0: 662e 10bf f278 d5bd e4e6 4ebe a0bd 5fbe
00000300: a28a f23e e88b 3c3e 270d b23d fbd1 b9bd

bias f4 [14]
-0.1289161 -0.3247698 0.15630585 0.25618392 -0.14254612 -0.42832223 0.1540619 0.03014345
-0.4805762 -0.08035873 0.17922342 0.027811617 0.172408 0.3517443
00000000: 9502 04be 3a48 a6be a40e 203e 8a2a 833e
00000010: 9cf7 11be 0d4d dbbe 67c2 1d3e 65ef f63c
00000020: 150e f6be 1e93 a4bd 5886 373e 30d5 e33c
00000030: b98b 303e d417 b43e

weight f4 [14]
0.9850356 0.93755096 0.9966799 1.1371391 1.1250955 0.9365844 0.8522868 0.84851795
0.7998615 0.77801865 0.8716492 0.9525834 1.1628348 1.1006117
00000000: 4b2b 7c3f 5703 703f 6a26 7f3f c68d 913f
00000010: 2103 903f ffc3 6f3f 782f 5a3f 7938 593f
00000020: b9c3 4c3f 3b2c 473f 6724 5f3f 81dc 733f
00000030: c5d7 943f d8e0 8c3f

bias f4 [14]
-0.35741264 -0.23095262 -0.46499178 -0.051010367 0.2621922 -0.06925107 0.20682058 -0.5355809
-0.20783323 -0.11580496 0.006824151 -0.3429571 -0.010349626 0.1947865
00000000: cafe b6be d87e 6cbe 6713 eebe 3ff0 50bd
00000010: 0e3e 863e 81d3 8dbd c6c8 533e d41b 09bf
00000020: 3cd2 54be 272b edbd 219d df3b 1398 afbe
00000030: 7a91 29bc 1d76 473e

running_mean f4 [14]
0.47196633 0.30802977 0.7542172 0.6876272 0.59564203 0.43416762 0.40638342 0.39293724
0.1777055 0.61187124 0.47999418 0.83162534 0.5892934 0.7236401
00000000: 92a5 f13e 14b6 9d3e 6114 413f 5608 303f
00000010: ff7b 183f 384b de3e 7d11 d03e 122f c93e
00000020: 6ef8 353e 98a3 1c3f ccc1 f53e 66e5 543f
00000030: efdb 163f 7a40 393f

running_var f4 [14]
0.59139264 0.31275445 1.2644737 0.6051628 0.58881485 0.5123972 0.21286827 0.43745527
0.1535063 0.97190505 0.35556206 1.7026365 0.4202925 0.50019777
00000000: 8265 173f 5a21 a03e 46da a13f f3eb 1a3f
00000010: 92bc 163f 772c 033f 24fa 593e 23fa df3e
00000020: c130 1d3e c5ce 783f 3b0c b63e feef d93f
00000030: 9430 d73e f60c 003f

weight f4 [8, 14]
-0.08802118 0.012648192 -0.44273084 -0.064555585 0.11474242 -0.20329478 0.14263529 -0.27220243
-0.0981247 -0.07755003 0.01621895 -0.19136427 0.03748546 0.17511538 -0.104910985 -0.08900923
-0.08496728 0.36190486 0.3302807 0.25855654 0.08754023 0.0005129152 -0.08272189 0.12320481
0.03271856 0.1524705 0.4843043 0.20977797 0.12842444 0.061766863 0.12928842 -0.1802328
-0.13599057 -0.21949355 -0.07224728 0.2824018 0.21455331 0.27779597 -0.079916544 0.3543588
-0.18225424 -0.13862938 -0.07474881 -0.014970831 -0.15177307 0.26829854 0.27269137 0.43825126
0.30145338 -0.03913431 -0.27419978 -0.20289491 0.01572895 -0.070368856 0.26253995 0.37616432
0.29955336 0.15184484 0.40963295 0.049533248 0.0009798699 0.0262352 -0.12652637 0.44966286
0.17308155 0.14278646 -0.24490827 0.28661874 0.18512905 0.15874687 -0.26244056 -0.02698635
0.08486058 0.2726982 0.23606837 0.12657101 -0.096398026 -0.111411914 -0.1341682 -0.13541746
0.19313239 -0.09402907 0.3234116 0.29098156 -0.28793755 -0.22785318 -0.14150135 0.18331958
0.20559575 0.23486833 0.11782478 -0.1297262 0.13152122 -0.08637384 -0.058594562 -0.2483376
0.011248546 0.16847122 0.16012266 0.31737393 0.27807975 -0.25553718 -0.19508335 -0.10261296
-0.36217517 -0.053947408 0.1957134 0.22893192 -0.30665624 0.23113964 -0.11046184 -0.2824752
00000000: 7344 b4bd 5d3a 4f3c 9ead e2be b835 84bd
00000010: 13fe ea3d 822c 50be fc0e 123e 1e5e 8bbe
00000020: 9af5 c8bd 8dd2 9ebd 9add 843c fff4 43be
00000030: 5b8a 193d 7251 333e 92db d6bd 794a b6bd
00000040: 5303 aebd 984b b93e 8d1a a93e 8661 843e
00000050: 4b48 b33d 2875 063a 186a a9bd ce52 fc3d
00000060: e603 063d 3a21 1c3e bcf6 f73e 09d0 563e
00000070: b281 033e 40ff 7c3d 2f64 043e f28e 38be
00000080: 1d41 0bbe ebc2 60be 62f6 93bd f896 903e
00000090: ddb3 5b3e 463b 8e3e 49ab a3bd 846e b53e
000000a0: dba0 3abe dcf4 0dbe e715 99bd 3748 75bc
000000b0: 666a 1bbe 6d5e 893e 349e 8b3e 7862 e03e
000000c0: 1958 9a3e 4c4b 20bd ea63 8cbe afc3 4fbe
000000d0: 00da 803c 8c1d 90bd a36b 863e 9c98 c03e
000000e0: 0f5f 993e 377d 1b3e 69bb d13e 60e3 4a3d
000000f0: fa6e 803a 34eb d63c 2190 01be 363a e63e
00000100: 4a3c 313e 9d36 123e 3cc9 7abe b1bf 923e
00000110: 7892 3d3e 8a8e 223e 9c5e 86be 7a12 ddbc
00000120: 62cb ad3d 199f 8b3e e8bb 713e d59b 013e
00000130: 546c c5bd ee2b e4bd 6363 09be e0aa 0abe
00000140: 7fc4 453e 5092 c0bd 3596 a53e 89fb 943e
00000150: 8d6c 93be 5852 69be bbe5 10be 21b8 3b3e
00000160: b187 523e 5381 703e 1e4e f13d f2d6 04be
00000170: 80ad 063e c5e4 b0bd da00 70bd 364c 7ebe
00000180: d24b 383c b883 2c3e 32f7 233e d67e a23e
00000190: 7860 8e3e c5d5 82be eec3 47be be26 d2bd
000001a0: 066f b9be f5f7 5cbd 1869 483e 216d 6a3e
000001b0: 0c02 9dbe dfaf 6c3e d139 e2bd 97a0 90be

bias f4 [8]
1.1425908 0.12569357 0.6404186 -0.1120193 0.1460862 -0.024540886 0.5249673 0.75352067
00000000: 6a40 923f d1b5 003e 79f2 233f 606a e5bd
00000010: 9f97 153e f809 c9bc 4264 063f bbe6 403f

weight f4 [8]
0.6852725 0.8280226 0.7750959 0.76351005 0.7767227 0.58433187 0.6172745 0.7897903
00000000: 056e 2f3f 4af9 533f af6c 463f 6575 433f
00000010: 4dd7 463f c696 153f b405 1e3f b22f 4a3f

bias f4 [8]
0.20378011 0.3268806 -0.2901399 -0.59590155 -0.055053707 0.22036818 0.28335637 -0.30630744
00000000: bcab 503e e55c a73e 388d 94be 018d 18bf
00000010: ff7f 61bd 32a8 613e 1614 913e 54d4 9cbe

running_mean f4 [8]
1.8295013 0.91183984 0.82601476 1.081196 0.42367613 0.86050427 1.259606 1.0042084
00000000: 192d ea3f 566e 693f b475 533f a164 8a3f
00000010: 14ec d83e 024a 5c3f c53a a13f e789 803f

running_var f4 [8]
0.93511176 1.9517398 1.7757144 2.3909972 1.1895554 1.4119105 1.400766 2.203564
00000000: 7c63 6f3f 9cd2 f93f 9c4a e33f 1906 1940
00000010: 5a43 983f 7cb9 b43f 4d4c b33f 3107 0d40

weight f4 [4, 8]
0.077425614 0.19184043 -0.200746 0.16271836 -0.23949149 0.24896705 0.17176737 -0.16547936
-0.24477836 -0.28659394 0.3078804 0.083188824 0.17303278 -0.14757414 -0.35880235 0.25558105
0.3116394 -0.17401081 -0.07125861 0.23493107 0.13519552 -0.06613806 0.07914434 -0.010865808
-0.069341555 -0.3325795 0.1279057 -0.06944872 0.16343108 -0.28344536 -0.2509449 0.13015755
00000000: 5291 9e3d d171 443e 5c90 4dbe a49f 263e
00000010: 423d 75be 38f1 7e3e c9e3 2f3e 6c73 29be
00000020: 2ea7 7abe 71bc 92be 80a2 9d3e e75e aa3d
00000030: 812f 313e ad1d 17be f1b4 b7be 85db 823e
00000040: 338f 9f3e e42f 32be 09f0 91bd c591 703e
00000050: b270 0a3e 6473 87bd 6d16 a23d 8106 32bc
00000060: f202 8ebd dc47 aabe b6f9 023e 213b 8ebd
00000070: 7a5a 273e c01f 91be da7b 80be 0548 053e

bias f4 [4]
1.0015312 0.7327789 -0.97714186 0.8214257
00000000: 2d32 803f 6697 3b3f f825 7abf f448 523f

weight f4 [4]
1.0571182 1.2075351 1.1652284 0.885913
00000000: a64f 873f 8390 9a3f 3426 953f 32cb 623f

bias f4 [4]
-0.34413654 0.32587948 -0.22603096 0.20114139
00000000: aa32 b0be add9 a63e a974 67be 02f8 4d3e

running_mean f4 [4]
1.2647223 0.52779984 5.8650026e-19 0.6758855
00000000: 6ce2 a13f e41d 073f b51a 2d21 d506 2d3f

running_var f4 [4]
0.6313368 0.6731273 1.5222056e-19 0.41131657
00000000: 4a9f 213f 1252 2c3f d7b5 3320 1698 d23e

weight f4 [1, 4]
-0.3451222 0.31270263 -0.4122235 0.43733218
00000000: dbb3 b0be 8f1a a03e f50e d3be 01ea df3e
